…
          (bn2): SyncBatchNorm(128, eps=0.001, momentum=0.01, affine=True, track_running_stats=True)
        )
      )
      (extra_conv): SparseSequential(
        (0): SparseConv3d(128, 128, kernel_size=[3, 1, 1], stride=[2, 1, 1], padding=[0, 0, 0], dilation=[1, 1, 1], output_padding=[0, 0, 0], bias=False, algo=ConvAlgo.MaskImplicitGemm)
        (1): SyncBatchNorm(128, eps=0.001, momentum=0.01, affine=True, track_running_stats=True)
        (2): ReLU()
      )
    )
    (neck): RPN(
      (blocks): ModuleList(
        (0): Sequential(
          (0): ZeroPad2d(padding=(1, 1, 1, 1), value=0.0)
          (1): Conv2d(256, 128, kernel_size=(3, 3), stride=(1, 1), bias=False)
          (2): SyncBatchNorm(128, eps=0.001, momentum=0.01, affine=True, track_running_stats=True)
          (3): ReLU()
          (4): Conv2d(128, 128, kernel_size=(3, 3), stride=(1, 1), padding=(1, 1), bias=False)
          (5): SyncBatchNorm(128, eps=0.001, momentum=0.01, affine=True, track_running_stats=True)
          (6): ReLU()
          (7): Conv2d(128, 128, kernel_size=(3, 3), stride=(1, 1), padding=(1, 1), bias=False)
          (8): SyncBatchNorm(128, eps=0.001, momentum=0.01, affine=True, track_running_stats=True)
          (9): ReLU()
          (10): Conv2d(128, 128, kernel_size=(3, 3), stride=(1, 1), padding=(1, 1), bias=False)
          (11): SyncBatchNorm(128, eps=0.001, momentum=0.01, affine=True, track_running_stats=True)
          (12): ReLU()
          (13): Conv2d(128, 128, kernel_size=(3, 3), stride=(1, 1), padding=(1, 1), bias=False)
          (14): SyncBatchNorm(128, eps=0.001, momentum=0.01, affine=True, track_running_stats=True)
          (15): ReLU()
          (16): Conv2d(128, 128, kernel_size=(3, 3), stride=(1, 1), padding=(1, 1), bias=False)
          (17): SyncBatchNorm(128, eps=0.001, momentum=0.01, affine=True, track_running_stats=True)
          (18): ReLU()
        )
        (1): Sequential(
          (0): ZeroPad2d(padding=(1, 1, 1, 1), value=0.0)
          (1): Conv2d(128, 256, kernel_size=(3, 3), stride=(2, 2), bias=False)
          (2): SyncBatchNorm(256, eps=0.001, momentum=0.01, affine=True, track_running_stats=True)
          (3): ReLU()
          (4): Conv2d(256, 256, kernel_size=(3, 3), stride=(1, 1), padding=(1, 1), bias=False)
          (5): SyncBatchNorm(256, eps=0.001, momentum=0.01, affine=True, track_running_stats=True)
          (6): ReLU()
          (7): Conv2d(256, 256, kernel_size=(3, 3), stride=(1, 1), padding=(1, 1), bias=False)
          (8): SyncBatchNorm(256, eps=0.001, momentum=0.01, affine=True, track_running_stats=True)
          (9): ReLU()
          (10): Conv2d(256, 256, kernel_size=(3, 3), stride=(1, 1), padding=(1, 1), bias=False)
          (11): SyncBatchNorm(256, eps=0.001, momentum=0.01, affine=True, track_running_stats=True)
          (12): ReLU()
          (13): Conv2d(256, 256, kernel_size=(3, 3), stride=(1, 1), padding=(1, 1), bias=False)
          (14): SyncBatchNorm(256, eps=0.001, momentum=0.01, affine=True, track_running_stats=True)
          (15): ReLU()
          (16): Conv2d(256, 256, kernel_size=(3, 3), stride=(1, 1), padding=(1, 1), bias=False)
          (17): SyncBatchNorm(256, eps=0.001, momentum=0.01, affine=True, track_running_stats=True)
          (18): ReLU()
        )
      )
      (deblocks): ModuleList(
        (0): Sequential(
          (0): Conv2d(128, 256, kernel_size=(1, 1), stride=(1, 1), bias=False)
          (1): SyncBatchNorm(256, eps=0.001, momentum=0.01, affine=True, track_running_stats=True)
          (2): ReLU()
        )
        (1): Sequential(
          (0): ConvTranspose2d(256, 256, kernel_size=(2, 2), stride=(2, 2), bias=False)
          (1): SyncBatchNorm(256, eps=0.001, momentum=0.01, affine=True, track_running_stats=True)
          (2): ReLU()
        )
      )
    )
    (bbox_head): CenterHead(
      (crit): FastFocalLoss()
      (crit_reg): RegLoss()
      (shared_conv): Sequential(
        (0): Conv2d(512, 64, kernel_size=(3, 3), stride=(1, 1), padding=(1, 1))
        (1): SyncBatchNorm(64, eps=1e-05, momentum=0.1, affine=True, track_running_stats=True)
        (2): ReLU(inplace=True)
      )
      (tasks): ModuleList(
        (0): SepHead(
          (reg): Sequential(
            (0): Conv2d(64, 64, kernel_size=(3, 3), stride=(1, 1), padding=(1, 1))
            (1): SyncBatchNorm(64, eps=1e-05, momentum=0.1, affine=True, track_running_stats=True)
            (2): ReLU()
            (3): Conv2d(64, 2, kernel_size=(3, 3), stride=(1, 1), padding=(1, 1))
          )
          (height): Sequential(
            (0): Conv2d(64, 64, kernel_size=(3, 3), stride=(1, 1), padding=(1, 1))
            (1): SyncBatchNorm(64, eps=1e-05, momentum=0.1, affine=True, track_running_stats=True)
            (2): ReLU()
            (3): Conv2d(64, 1, kernel_size=(3, 3), stride=(1, 1), padding=(1, 1))
          )
          (dim): Sequential(
            (0): Conv2d(64, 64, kernel_size=(3, 3), stride=(1, 1), padding=(1, 1))
            (1): SyncBatchNorm(64, eps=1e-05, momentum=0.1, affine=True, track_running_stats=True)
            (2): ReLU()
            (3): Conv2d(64, 3, kernel_size=(3, 3), stride=(1, 1), padding=(1, 1))
          )
          (rot): Sequential(
            (0): Conv2d(64, 64, kernel_size=(3, 3), stride=(1, 1), padding=(1, 1))
            (1): SyncBatchNorm(64, eps=1e-05, momentum=0.1, affine=True, track_running_stats=True)
            (2): ReLU()
            (3): Conv2d(64, 2, kernel_size=(3, 3), stride=(1, 1), padding=(1, 1))
          )
          (hm): Sequential(
            (0): Conv2d(64, 64, kernel_size=(3, 3), stride=(1, 1), padding=(1, 1))
            (1): SyncBatchNorm(64, eps=1e-05, momentum=0.1, affine=True, track_running_stats=True)
            (2): ReLU()
            (3): Conv2d(64, 3, kernel_size=(3, 3), stride=(1, 1), padding=(1, 1))
          )
        )
      )
    )
  )
)
2024-06-04 17:39:48,987 - INFO - Start running, host: rajeev-gupta@rajeevgupta-Nitro-AN515-58, work_dir: /home/rajeev-gupta/sensyn_ws/src/GraphRCNN/work_dirs/waymo_centerpoint_voxelnet_3x
2024-06-04 17:39:48,987 - INFO - workflow: [('train', 1)], max: 36 epochs
[WARNING]your gpu arch (8, 9) isn't compiled in prebuilt, may cause invalid device function. available: {(7, 0), (6, 1), (8, 0), (6, 0), (7, 5), (8, 6), (5, 2)}
…
            (conv2): SubMConv3d(128, 128, kernel_size=[3, 3, 3], stride=[1, 1, 1], padding=[1, 1, 1], dilation=[1, 1, 1], output_padding=[0, 0, 0], algo=ConvAlgo.MaskImplicitGemm)
            (bn2): FrozenBatchNorm2d(num_features=128, eps=0.001)
          )
        )
        (extra_conv): SparseSequential(
          (0): SparseConv3d(128, 128, kernel_size=[3, 1, 1], stride=[2, 1, 1], padding=[0, 0, 0], dilation=[1, 1, 1], output_padding=[0, 0, 0], bias=False, algo=ConvAlgo.MaskImplicitGemm)
          (1): FrozenBatchNorm2d(num_features=128, eps=0.001)
          (2): ReLU()
        )
      )
      (neck): RPN(
        (blocks): ModuleList(
          (0): Sequential(
            (0): ZeroPad2d(padding=(1, 1, 1, 1), value=0.0)
            (1): Conv2d(256, 128, kernel_size=(3, 3), stride=(1, 1), bias=False)
            (2): FrozenBatchNorm2d(num_features=128, eps=0.001)
            (3): ReLU()
            (4): Conv2d(128, 128, kernel_size=(3, 3), stride=(1, 1), padding=(1, 1), bias=False)
            (5): FrozenBatchNorm2d(num_features=128, eps=0.001)
            (6): ReLU()
            (7): Conv2d(128, 128, kernel_size=(3, 3), stride=(1, 1), padding=(1, 1), bias=False)
            (8): FrozenBatchNorm2d(num_features=128, eps=0.001)
            (9): ReLU()
            (10): Conv2d(128, 128, kernel_size=(3, 3), stride=(1, 1), padding=(1, 1), bias=False)
            (11): FrozenBatchNorm2d(num_features=128, eps=0.001)
            (12): ReLU()
            (13): Conv2d(128, 128, kernel_size=(3, 3), stride=(1, 1), padding=(1, 1), bias=False)
            (14): FrozenBatchNorm2d(num_features=128, eps=0.001)
            (15): ReLU()
            (16): Conv2d(128, 128, kernel_size=(3, 3), stride=(1, 1), padding=(1, 1), bias=False)
            (17): FrozenBatchNorm2d(num_features=128, eps=0.001)
            (18): ReLU()
          )
          (1): Sequential(
            (0): ZeroPad2d(padding=(1, 1, 1, 1), value=0.0)
            (1): Conv2d(128, 256, kernel_size=(3, 3), stride=(2, 2), bias=False)
            (2): FrozenBatchNorm2d(num_features=256, eps=0.001)
            (3): ReLU()
            (4): Conv2d(256, 256, kernel_size=(3, 3), stride=(1, 1), padding=(1, 1), bias=False)
            (5): FrozenBatchNorm2d(num_features=256, eps=0.001)
            (6): ReLU()
            (7): Conv2d(256, 256, kernel_size=(3, 3), stride=(1, 1), padding=(1, 1), bias=False)
            (8): FrozenBatchNorm2d(num_features=256, eps=0.001)
            (9): ReLU()
            (10): Conv2d(256, 256, kernel_size=(3, 3), stride=(1, 1), padding=(1, 1), bias=False)
            (11): FrozenBatchNorm2d(num_features=256, eps=0.001)
            (12): ReLU()
            (13): Conv2d(256, 256, kernel_size=(3, 3), stride=(1, 1), padding=(1, 1), bias=False)
            (14): FrozenBatchNorm2d(num_features=256, eps=0.001)
            (15): ReLU()
            (16): Conv2d(256, 256, kernel_size=(3, 3), stride=(1, 1), padding=(1, 1), bias=False)
            (17): FrozenBatchNorm2d(num_features=256, eps=0.001)
            (18): ReLU()
          )
        )
        (deblocks): ModuleList(
          (0): Sequential(
            (0): Conv2d(128, 256, kernel_size=(1, 1), stride=(1, 1), bias=False)
            (1): FrozenBatchNorm2d(num_features=256, eps=0.001)
            (2): ReLU()
          )
          (1): Sequential(
            (0): ConvTranspose2d(256, 256, kernel_size=(2, 2), stride=(2, 2), bias=False)
            (1): FrozenBatchNorm2d(num_features=256, eps=0.001)
            (2): ReLU()
          )
        )
      )
      (bbox_head): CenterHead(
        (crit): FastFocalLoss()
        (crit_reg): RegLoss()
        (shared_conv): Sequential(
          (0): Conv2d(512, 64, kernel_size=(3, 3), stride=(1, 1), padding=(1, 1))
          (1): FrozenBatchNorm2d(num_features=64, eps=1e-05)
          (2): ReLU(inplace=True)
        )
        (tasks): ModuleList(
          (0): SepHead(
            (reg): Sequential(
              (0): Conv2d(64, 64, kernel_size=(3, 3), stride=(1, 1), padding=(1, 1))
              (1): FrozenBatchNorm2d(num_features=64, eps=1e-05)
              (2): ReLU()
              (3): Conv2d(64, 2, kernel_size=(3, 3), stride=(1, 1), padding=(1, 1))
            )
            (height): Sequential(
              (0): Conv2d(64, 64, kernel_size=(3, 3), stride=(1, 1), padding=(1, 1))
              (1): FrozenBatchNorm2d(num_features=64, eps=1e-05)
              (2): ReLU()
              (3): Conv2d(64, 1, kernel_size=(3, 3), stride=(1, 1), padding=(1, 1))
            )
            (dim): Sequential(
              (0): Conv2d(64, 64, kernel_size=(3, 3), stride=(1, 1), padding=(1, 1))
              (1): FrozenBatchNorm2d(num_features=64, eps=1e-05)
              (2): ReLU()
              (3): Conv2d(64, 3, kernel_size=(3, 3), stride=(1, 1), padding=(1, 1))
            )
            (rot): Sequential(
              (0): Conv2d(64, 64, kernel_size=(3, 3), stride=(1, 1), padding=(1, 1))
              (1): FrozenBatchNorm2d(num_features=64, eps=1e-05)
              (2): ReLU()
              (3): Conv2d(64, 2, kernel_size=(3, 3), stride=(1, 1), padding=(1, 1))
            )
            (hm): Sequential(
              (0): Conv2d(64, 64, kernel_size=(3, 3), stride=(1, 1), padding=(1, 1))
              (1): FrozenBatchNorm2d(num_features=64, eps=1e-05)
              (2): ReLU()
              (3): Conv2d(64, 3, kernel_size=(3, 3), stride=(1, 1), padding=(1, 1))
            )
          )
        )
      )
    )
    (bbox_head): CenterHead(
      (crit): FastFocalLoss()
      (crit_reg): RegLoss()
      (shared_conv): Sequential(
        (0): Conv2d(512, 64, kernel_size=(3, 3), stride=(1, 1), padding=(1, 1))
        (1): FrozenBatchNorm2d(num_features=64, eps=1e-05)
        (2): ReLU(inplace=True)
      )
      (tasks): ModuleList(
        (0): SepHead(
          (reg): Sequential(
            (0): Conv2d(64, 64, kernel_size=(3, 3), stride=(1, 1), padding=(1, 1))
            (1): FrozenBatchNorm2d(num_features=64, eps=1e-05)
            (2): ReLU()
            (3): Conv2d(64, 2, kernel_size=(3, 3), stride=(1, 1), padding=(1, 1))
          )
          (height): Sequential(
            (0): Conv2d(64, 64, kernel_size=(3, 3), stride=(1, 1), padding=(1, 1))
            (1): FrozenBatchNorm2d(num_features=64, eps=1e-05)
            (2): ReLU()
            (3): Conv2d(64, 1, kernel_size=(3, 3), stride=(1, 1), padding=(1, 1))
          )
          (dim): Sequential(
            (0): Conv2d(64, 64, kernel_size=(3, 3), stride=(1, 1), padding=(1, 1))
            (1): FrozenBatchNorm2d(num_features=64, eps=1e-05)
            (2): ReLU()
            (3): Conv2d(64, 3, kernel_size=(3, 3), stride=(1, 1), padding=(1, 1))
          )
          (rot): Sequential(
            (0): Conv2d(64, 64, kernel_size=(3, 3), stride=(1, 1), padding=(1, 1))
            (1): FrozenBatchNorm2d(num_features=64, eps=1e-05)
            (2): ReLU()
            (3): Conv2d(64, 2, kernel_size=(3, 3), stride=(1, 1), padding=(1, 1))
          )
          (hm): Sequential(
            (0): Conv2d(64, 64, kernel_size=(3, 3), stride=(1, 1), padding=(1, 1))
            (1): FrozenBatchNorm2d(num_features=64, eps=1e-05)
            (2): ReLU()
            (3): Conv2d(64, 3, kernel_size=(3, 3), stride=(1, 1), padding=(1, 1))
          )
        )
      )
    )
    (roi_head): GraphRCNNHead(
      (proposal_target_layer): ProposalTargetLayer()
      (roilocal_dfvs_pool3d_layer): RoILocalDFVSPool3d()
      (attn_gnn_layer): AttnGNNLayer(
        (edge_layes): ModuleList(
          (0): Sequential(
            (0): Conv2d(22, 32, kernel_size=(1, 1), stride=(1, 1), bias=False)
            (1): SyncBatchNorm(32, eps=1e-05, momentum=0.1, affine=True, track_running_stats=True)
            (2): ReLU()
          )
          (1): Sequential(
            (0): Conv2d(64, 32, kernel_size=(1, 1), stride=(1, 1), bias=False)
            (1): SyncBatchNorm(32, eps=1e-05, momentum=0.1, affine=True, track_running_stats=True)
            (2): ReLU()
          )
          (2): Sequential(
            (0): Conv2d(64, 64, kernel_size=(1, 1), stride=(1, 1), bias=False)
            (1): SyncBatchNorm(64, eps=1e-05, momentum=0.1, affine=True, track_running_stats=True)
            (2): ReLU()
          )
        )
        (calib): Sequential(
          (0): Conv1d(128, 64, kernel_size=(1,), stride=(1,), bias=False)
          (1): SyncBatchNorm(64, eps=1e-05, momentum=0.1, affine=True, track_running_stats=True)
          (2): ReLU()
          (3): Conv1d(64, 128, kernel_size=(1,), stride=(1,))
        )
        (expansion): Sequential(
          (0): Conv1d(128, 512, kernel_size=(1,), stride=(1,), bias=False)
          (1): SyncBatchNorm(512, eps=1e-05, momentum=0.1, affine=True, track_running_stats=True)
          (2): ReLU()
        )
        (reduction): Sequential(
          (0): Conv1d(512, 256, kernel_size=(1,), stride=(1,), bias=False)
          (1): SyncBatchNorm(256, eps=1e-05, momentum=0.1, affine=True, track_running_stats=True)
          (2): ReLU()
        )
        (shortcut): ShortcutLayer(
          (conv1): Conv1d(256, 256, kernel_size=(1,), stride=(1,))
          (conv2): Conv1d(256, 256, kernel_size=(1,), stride=(1,))
          (norm1): SyncBatchNorm(256, eps=1e-05, momentum=0.1, affine=True, track_running_stats=True)
          (norm2): SyncBatchNorm(256, eps=1e-05, momentum=0.1, affine=True, track_running_stats=True)
          (dropout1): Dropout(p=0.1, inplace=False)
          (dropout2): Dropout(p=0.1, inplace=False)
          (dropout3): Dropout(p=0.1, inplace=False)
        )
      )
      (shared_fc_layer): Sequential(
        (0): Conv1d(256, 256, kernel_size=(1,), stride=(1,), bias=False)
        (1): SyncBatchNorm(256, eps=1e-05, momentum=0.1, affine=True, track_running_stats=True)
        (2): ReLU()
      )
      (cls_layers): Conv1d(256, 1, kernel_size=(1,), stride=(1,))
      (reg_layers): Conv1d(256, 7, kernel_size=(1,), stride=(1,))
    )
  )
)
2024-06-04 17:40:16,939 - INFO - Start running, host: rajeev-gupta@rajeevgupta-Nitro-AN515-58, work_dir: /home/rajeev-gupta/sensyn_ws/src/GraphRCNN/work_dirs/waymo_centerpoint_voxelnet_graphrcnn_6epoch_freeze
2024-06-04 17:40:16,939 - INFO - workflow: [('train', 1)], max: 6 epochs
[WARNING]your gpu arch (8, 9) isn't compiled in prebuilt, may cause invalid device function. available: {(7, 0), (6, 1), (8, 0), (6, 0), (7, 5), (8, 6), (5, 2)}
…
